…
orConditionalGeneration.from_pretrained(model_name)\nmodel.to(device)","metadata":{"execution":{"iopub.status.busy":"2024-08-01T04:11:19.543854Z","iopub.execute_input":"2024-08-01T04:11:19.544252Z","iopub.status.idle":"2024-08-01T04:11:40.540260Z","shell.execute_reply.started":"2024-08-01T04:11:19.544221Z","shell.execute_reply":"2024-08-01T04:11:40.539348Z"},"collapsed":true,"jupyter":{"outputs_hidden":true},"trusted":true},"execution_count":3,"outputs":[{"execution_count":3,"output_type":"execute_result","data":{"text/plain":"MBartForConditionalGeneration(\n  (model): MBartModel(\n    (shared): Embedding(250054, 1024, padding_idx=1)\n    (encoder): MBartEncoder(\n      (embed_tokens): MBartScaledWordEmbedding(250054, 1024, padding_idx=1)\n      (embed_positions): MBartLearnedPositionalEmbedding(1026, 1024)\n      (layers): ModuleList(\n        (0-11): 12 x MBartEncoderLayer(\n          (self_attn): MBartAttention(\n            (k_proj): Linear(in_features=1024, out_features=1024, bias=True)\n            (v_proj): Linear(in_features=1024, out_features=1024, bias=True)\n            (q_proj): Linear(in_features=1024, out_features=1024, bias=True)\n            (out_proj): Linear(in_features=1024, out_features=1024, bias=True)\n          )\n          (self_attn_layer_norm): LayerNorm((1024,), eps=1e-05, elementwise_affine=True)\n          (activation_fn): ReLU()\n          (fc1): Linear(in_features=1024, out_features=4096, bias=True)\n          (fc2): Linear(in_features=4096, out_features=1024, bias=True)\n          (final_layer_norm): LayerNorm((1024,), eps=1e-05, elementwise_affine=True)\n        )\n      )\n      (layernorm_embedding): LayerNorm((1024,), eps=1e-05, elementwise_affine=True)\n      (layer_norm): LayerNorm((1024,), eps=1e-05, elementwise_affine=True)\n    )\n    (decoder): MBartDecoder(\n      (embed_tokens): MBartScaledWordEmbedding(250054, 1024, padding_idx=1)\n      (embed_positions): MBartLearnedPositionalEmbedding(1026, 1024)\n      (layers): ModuleList(\n        (0-11): 12 x MBartDecoderLayer(\n          (self_attn): MBartAttention(\n            (k_proj): Linear(in_features=1024, out_features=1024, bias=True)\n            (v_proj): Linear(in_features=1024, out_features=1024, bias=True)\n            (q_proj): Linear(in_features=1024, out_features=1024, bias=True)\n            (out_proj): Linear(in_features=1024, out_features=1024, bias=True)\n          )\n          (activation_fn): ReLU()\n          (self_attn_layer_norm): LayerNorm((1024,), eps=1e-05, elementwise_affine=True)\n          (encoder_attn): MBartAttention(\n            (k_proj): Linear(in_features=1024, out_features=1024, bias=True)\n            (v_proj): Linear(in_features=1024, out_features=1024, bias=True)\n            (q_proj): Linear(in_features=1024, out_features=1024, bias=True)\n            (out_proj): Linear(in_features=1024, out_features=1024, bias=True)\n          )\n          (encoder_attn_layer_norm): LayerNorm((1024,), eps=1e-05, elementwise_affine=True)\n          (fc1): Linear(in_features=1024, out_features=4096, bias=True)\n          (fc2): Linear(in_features=4096, out_features=1024, bias=True)\n          (final_layer_norm): LayerNorm((1024,), eps=1e-05, elementwise_affine=True)\n        )\n      )\n      (layernorm_embedding): LayerNorm((1024,), eps=1e-05, elementwise_affine=True)\n      (layer_norm): LayerNorm((1024,), eps=1e-05, elementwise_affine=True)\n    )\n  )\n  (lm_head): Linear(in_features=1024, out_features=250054, bias=False)\n)"},"metadata":{}}]},{"cell_type":"code","source":"import pandas as pd\n# Load your dataset (assuming it's a CSV file with an 'english' column)\ndf = pd.read_csv('/kaggle/input/tatoeba-tamil/Tatoeba-tamil.csv')\nenglish_sentences = df['English'].tolist()\ntamil_sentences = df['Tamil'].to_list()","metadata":{"execution":{"iopub.status.busy":"2024-
…
ned(model_name)\n# Load the model\nmodel = MBartForConditionalGeneration.from_pretrained(model_name)\nmodel.to(device)","metadata":{"execution":{"iopub.status.busy":"2024-08-01T04:19:04.030629Z","iopub.execute_input":"2024-08-01T04:19:04.030918Z","iopub.status.idle":"2024-08-01T04:19:11.637749Z","shell.execute_reply.started":"2024-08-01T04:19:04.030894Z","shell.execute_reply":"2024-08-01T04:19:11.636730Z"},"trusted":true},"execution_count":15,"outputs":[{"execution_count":15,"output_type":"execute_result","data":{"text/plain":"MBartForConditionalGeneration(\n  (model): MBartModel(\n    (shared): Embedding(250054, 1024, padding_idx=1)\n    (encoder): MBartEncoder(\n      (embed_tokens): MBartScaledWordEmbedding(250054, 1024, padding_idx=1)\n      (embed_positions): MBartLearnedPositionalEmbedding(1026, 1024)\n      (layers): ModuleList(\n        (0-11): 12 x MBartEncoderLayer(\n          (self_attn): MBartAttention(\n            (k_proj): Linear(in_features=1024, out_features=1024, bias=True)\n            (v_proj): Linear(in_features=1024, out_features=1024, bias=True)\n            (q_proj): Linear(in_features=1024, out_features=1024, bias=True)\n            (out_proj): Linear(in_features=1024, out_features=1024, bias=True)\n          )\n          (self_attn_layer_norm): LayerNorm((1024,), eps=1e-05, elementwise_affine=True)\n          (activation_fn): ReLU()\n          (fc1): Linear(in_features=1024, out_features=4096, bias=True)\n          (fc2): Linear(in_features=4096, out_features=1024, bias=True)\n          (final_layer_norm): LayerNorm((1024,), eps=1e-05, elementwise_affine=True)\n        )\n      )\n      (layernorm_embedding): LayerNorm((1024,), eps=1e-05, elementwise_affine=True)\n      (layer_norm): LayerNorm((1024,), eps=1e-05, elementwise_affine=True)\n    )\n    (decoder): MBartDecoder(\n      (embed_tokens): MBartScaledWordEmbedding(250054, 1024, padding_idx=1)\n      (embed_positions): MBartLearnedPositionalEmbedding(1026, 1024)\n      (layers): ModuleList(\n        (0-11): 12 x MBartDecoderLayer(\n          (self_attn): MBartAttention(\n            (k_proj): Linear(in_features=1024, out_features=1024, bias=True)\n            (v_proj): Linear(in_features=1024, out_features=1024, bias=True)\n            (q_proj): Linear(in_features=1024, out_features=1024, bias=True)\n            (out_proj): Linear(in_features=1024, out_features=1024, bias=True)\n          )\n          (activation_fn): ReLU()\n          (self_attn_layer_norm): LayerNorm((1024,), eps=1e-05, elementwise_affine=True)\n          (encoder_attn): MBartAttention(\n            (k_proj): Linear(in_features=1024, out_features=1024, bias=True)\n            (v_proj): Linear(in_features=1024, out_features=1024, bias=True)\n            (q_proj): Linear(in_features=1024, out_features=1024, bias=True)\n            (out_proj): Linear(in_features=1024, out_features=1024, bias=True)\n          )\n          (encoder_attn_layer_norm): LayerNorm((1024,), eps=1e-05, elementwise_affine=True)\n          (fc1): Linear(in_features=1024, out_features=4096, bias=True)\n          (fc2): Linear(in_features=4096, out_features=1024, bias=True)\n          (final_layer_norm): LayerNorm((1024,), eps=1e-05, elementwise_affine=True)\n        )\n      )\n      (layernorm_embedding): LayerNorm((1024,), eps=1e-05, elementwise_affine=True)\n      (layer_norm): LayerNorm((1024,), eps=1e-05, elementwise_affine=True)\n    )\n  )\n  (lm_head): Linear(in_features=1024, out_features=250054, bias=False)\n)"},"metadata":{}}]},{"cell_type":"code","source":"import sacrebleu\nfrom tqdm import tqdm\n\n# Function to generate translation for a given input text\ndef generate_translation(input_text):\n    input_ids = tokenizer(input_text, return_tensors=\"pt\").input_ids.to(device)\n    with torch.no_grad():\n        output_ids = model.generate(input_ids)
…
